Phase-2-Anomaly-Detection/best_bilstm_model.pth (torch, 695051 bytes, 24 tensors)

lstm.weight_ih_l0 f4 [256, 40]
0	0x3e00f616	0.12593874
1	0x3bd4c459	0.006493133
2	0xbdb99564	-0.09061697
3	0x3db43010	0.0879823
4	0x3c168b57	0.009188495
5	0x3d58ed24	0.05296053
6	0xbc262ebc	-0.010142978
7	0x3d810abf	0.06300878
8	0x3ddefadd	0.10887692
9	0xbc684177	-0.014175764
10	0x3d483888	0.048882037
11	0x3d001f5a	0.0312799
12	0x3dadbd74	0.08483401
13	0x3d3bd63b	0.045858603
14	0x3d500fa0	0.05079615
15	0x3c836c5a	0.016042877
16	0x3dbd562a	0.0924495
17	0xbd367c87	-0.044552352
18	0xbdea0f02	-0.11428644
19	0x3b91b223	0.0044462844
20	0xbdcac846	-0.099014804
21	0x39cf3c2b	0.00039526945
22	0xbdc5eec9	-0.09664685
23	0xbcb6b46f	-0.022302834
24	0xbdcf4111	-0.10119832
25	0xbde7fc93	-0.113274716
26	0x3bb501ed	0.005523911
27	0xbd29ce88	-0.04145673
28	0x3d988a67	0.07448273
29	0xbe08db8d	-0.13365002
30	0x3e00aad5	0.12565167
31	0xbc8f392f	-0.017483322
32	0x3dc7658c	0.097361654
33	0x3da65296	0.08121221
34	0xbd7ab8f9	-0.06121156
35	0x3dd09ceb	0.1018618
36	0x3d87d240	0.06631899
37	0x3e0a7d51	0.13524367
38	0x3d62acd9	0.05534062
39	0xbd204da2	-0.039136536
40	0x3c470c6e	0.01214896
41	0x3c33ee24	0.01098207
42	0x3d8667a9	0.0656274
43	0x3c4ef231	0.012630985
44	0x3d8f782d	0.070053436
45	0xbcf4bf5b	-0.029876402
46	0x3dcb469f	0.09925579
47	0x3dae2d7f	0.085047714
48	0x3de06097	0.10955923
49	0x3d0eaf04	0.034834877
50	0xbddae50c	-0.106882185
51	0xbcb8e8bc	-0.022571914
52	0xbd948b5c	-0.07253143
53	0x3d7a43c3	0.06109978
54	0x3a58741a	0.00082570466
55	0x3c70f657	0.0147071695
56	0xbc2861a0	-0.010277182
57	0x3cddf362	0.027093593
58	0x3d004038	0.031311244
59	0xbcb81e7b	-0.022475472
60	0x3cc329b7	0.023823602
61	0xbc863396	-0.01638202
62	0x3d62e127	0.055390503
63	0xbd229075	-0.039688546
64	0x3d6e85cf	0.05823308
65	0x3bfe888b	0.007767742
66	0x3d88281f	0.066482775
67	0xbd899ac4	-0.06718972
68	0xbc1b7464	-0.009488199
69	0xbe04944f	-0.129472
70	0x3ddbc206	0.107303664
71	0x3d606448	0.054783136
72	0x3d9a9c6a	0.07549365
73	0xbd050408	-0.032474548
74	0xbe27b6b9	-0.16378297
75	0xbd5f1804	-0.054466262
76	0xbd26baf6	-0.040705644
77	0x3c30c34c	0.01078875
78	0x3ce18a83	0.027531868
79	0x3d8cf5cb	0.06882819
80	0xbde05996	-0.10954587
81	0xbdf3512c	-0.11880717
82	0xbc0aaacf	-0.0084635755
83	0xbc9704f2	-0.018434975
84	0x3d99aad8	0.07503289
85	0x3ae475b1	0.0017430094
86	0x3c302202	0.010750296
87	0xbd2c2b71	-0.042033616
88	0xbc1efc9c	-0.009703781
89	0x3d929dc3	0.07158997
90	0xbc8ad1a7	-0.016945673
91	0x3aba2366	0.0014201223
92	0x3c832cc3	0.016012555
93	0x3d99fac8	0.07518536
94	0xbdea8f3a	-0.114530995
95	0xbdc3cd49	-0.095606394
96	0x3c6be2cf	0.014397337
97	0xbd678dc5	-0.056531686
98	0xbc615424	-0.013752971
99	0xbde84d41	-0.1134286
100	0xbd91953f	-0.071085446
101	0xbc854050	-0.016266018
102	0xbd25b576	-0.040456258
103	0xbda6bbcd	-0.08141289
104	0xbcdaee2d	-0.0267249
105	0xbdb0a8b2	-0.08625926
106	0xbdd4d04b	-0.10391291
107	0x3be61706	0.0070217876
108	0xbd02d27b	-0.03193901
109	0xbb6d2b20	-0.0036189035
110	0x3e0c3bbc	0.13694662
111	0xbb5dca16	-0.0033842376
112	0x3db3236b	0.0874699
113	0xbd198e1f	-0.037489053
114	0xbb089307	-0.0020839588
115	0x3c98b212	0.018639598
116	0xbbbda181	-0.005787075
117	0xbe0d8f68	-0.13824236
118	0xbdd6e02d	-0.10491977
119	0xbdb5042d	-0.08838687
120	0x3d165419	0.036701296
121	0xbc3bdc46	-0.0114660915
122	0x3c4b206a	0.012397865
123	0x3dccde6d	0.10003362
124	0xbd6d06bb	-0.057867747
125	0xbd478105	-0.048707027
126	0xbe0e452e	-0.13893577
127	0x3d393a1d	0.045221437
128	0x3de34843	0.11097767
129	0x3d5b0958	0.053475708
130	0x3dacb91c	0.08433744
131	0xbdd9e9cb	-0.106402956
132	0xbced065f	-0.028933702
133	0x3cee789a	0.029110242
134	0x3d04e3f8	0.03244397
135	0x3cc14ad1	0.023595246
136	0xbe40121c	-0.18756908
137	0xbdc91931	-0.09819258
138	0xbc6e86d9	-0.014558517
139	0xbd02cbf6	-0.031932794
140	0x3ac8d641	0.0015322642
141	0xbe4faef6	-0.20281586
142	0x3d43ba8d	0.04778533
143	0xbe1d9fdd	-0.15393014
144	0xbce6bc9e	-0.028166112
145	0xbd1a2beb	-0.03763954
146	0xbdd86708	-0.10566527
147	0x3d9e88b6	0.07740919
148	0x3db3a8ff	0.08772468
149	0xbd2abe14	-0.04168518
150	0x3cab88b3	0.020939207
151	0xbc6a17e3	-0.014287922
152	0xbc7a14b9	-0.01526373
153	0xbda1a6ab	-0.078931175
154	0x3de8d68e	0.11369048
155	0xbd9f147b	-0.07767578
156	0x3da0a860	0.07844615
157	0x3d9f017b	0.07763954
158	0x3d8e7f79	0.06957907
159	0x3d3c6978	0.04599902
160	0x3d9c5267	0.076329045
161	0x3d990b42	0.074728504
162	0x3d6c2dcc	0.057660863
163	0xbe2ab8a9	-0.16672005
164	0x3d6ff800	0.05858612
165	0x3ca0a146	0.019608151
166	0xbdac2a7f	-0.08406543
167	0x3d806927	0.06270056
168	0x3ba6b984	0.005088033
169	0xbd4fd900	-0.050744057
170	0xbd35a5cd	-0.044347573
171	0xbd37e9a5	-0.044900555
172	0x3da0110f	0.07815754
173	0xbc46bbf6	-0.012129774
174	0xbcb287de	-0.021793302
175	0x3ab673e7	0.001392004
176	0xbda5dcc3	-0.080987476
177	0x3d8b44ab	0.06800207
178	0xbd1c9f97	-0.038238134
179	0xbd219a67	-0.03945389
180	0x3d2033e7	0.039111998
181	0x3e19ec53	0.15031557
182	0x3d65c666	0.05609741
183	0xbd197662	-0.037466414
184	0x3dc11bb9	0.09429116
185	0x3daadc45	0.08342794
186	0x3dbeb7c5	0.09312395
187	0x3d9109fa	0.07081981
188	0x3d4be337	0.049777236
189	0x3bef0877	0.0072947103
190	0x3d30dc20	0.043178678
191	0x3d07acc8	0.03312376
192	0x3e078236	0.13233265
193	0x3e03f4fb	0.12886421
194	0xb8ae050c	-8.2979066e-05
195	0x3d326e15	0.043562014
196	0x3d5b8035	0.053589065
197	0xbba0cf9f	-0.004907563
198	0x3d152d66	0.03642025
199	0x3da42003	0.08013918
200	0xbd7042a0	-0.05865729
201	0xbd652e88	-0.05595258
202	0x3d363a94	0.04448946
203	0x3d1cd197	0.038285818
204	0x3d066142	0.032807596
205	0xbc0154de	-0.007893769
206	0xbdc86e94	-0.09786716
207	0xbdd92901	-0.10603524
208	0xbd9bc6ac	-0.07606253
209	0xbd09bcb7	-0.033627238
210	0x3d59202f	0.05300921
211	0x3cc2ed05	0.02379466
212	0xbd36496a	-0.044503607
213	0xbdb25552	-0.0870768
214	0x3c5b4216	0.013382455
215	0x3d1b404c	0.037903115
216	0x3d016441	0.03158975
217	0xbd35663f	-0.044286963
218	0x3cff3061	0.031150999
219	0xbd4ab0d0	-0.049485028
220	0xbd8271f6	-0.063693926
221	0x3d7146b3	0.058905315
222	0xbd782593	-0.06058271
223	0xbce9e481	-0.028551342
224	0xbdbe6da4	-0.09298256
225	0x3cc4a4ab	0.024004301
226	0x3d8608c4	0.06544641
227	0x3db4245e	0.08795999
228	0xbd04b4bf	-0.032398935
229	0xbc265216	-0.010151407
230	0xbcc58d43	-0.02411521
231	0x3d94495d	0.072405554
232	0x3dc31db3	0.09527149
233	0x3d9c970f	0.07646
234	0x3de164cc	0.110055536
235	0x3d7528a9	0.05985323
236	0x3c800843	0.01562894
237	0xbd3e7b45	-0.046504278
238	0xbd74c175	-0.059754808
239	0xbd539a75	-0.051660974
240	0x3d42c5af	0.047551807
241	0xbcad1b68	-0.021131232
242	0x3b9c6fe6	0.0047740815
243	0xbdfa8ede	-0.12234281
244	0x3d1d5b6e	0.038417272
245	0xbc632b80	-0.013865352
246	0xbd40a952	-0.047036476
247	0x3ceb347a	0.028711546
248	0x3beec3db	0.0072865314
249	0x3d98d6cd	0.07462845
250	0xbd785016	-0.06062325
251	0xbc625ee9	-0.013816574
252	0xbd2289fb	-0.03968237
253	0x3e0aeca6	0.13566837
254	0xbda092ae	-0.07840477
255	0xbdbffc9d	-0.09374354

lstm.weight_hh_l0 f4 [256, 64]
0	0x3d67306b	0.05644266
1	0x3c49c943	0.012316051
2	0xbcbe6511	-0.023241552
3	0x3d978cdd	0.073999144
4	0x3d117246	0.03550937
5	0xbd79fda6	-0.061032914
6	0xbd2baac2	-0.041910894
7	0xbd831778	-0.06400961
8	0x3dbd4f34	0.092436224
9	0x3daeb6e5	0.08530978
10	0x3d491edf	0.049101707
11	0x3d302c62	0.043011077
12	0x3d7c994d	0.061669637
13	0xbb50eb86	-0.0031878664
14	0x3d4cc634	0.04999371
15	0xbc9fa598	-0.019488141
16	0xbd6d0d15	-0.057873804
17	0xbdd76413	-0.105171345
18	0x3c715bd2	0.014731364
19	0x3c7dd6bc	0.015493091
20	0x3d38a80e	0.045082144
21	0x3ceb4c11	0.028722795
22	0xbc070825	-0.008241688
23	0xbd0eb9e2	-0.03484524
24	0x3b2b3902	0.0026126509
25	0xbcc1bcb8	-0.023649558
26	0xbdb03a58	-0.08604878
27	0xbe029651	-0.12752654
28	0x3d6c96ad	0.057760883
29	0x3c0cab30	0.008585736
30	0xbdb08be0	-0.08620429
31	0x3c119113	0.008884686
32	0xbcac5bd6	-0.021039885
33	0xbbfc1898	-0.0076933615
34	0xbc28985d	-0.0102902325
35	0xbd12c8d6	-0.035836063
36	0x3d93667b	0.07197281
37	0x3d096a52	0.03354866
38	0xbd84b9fc	-0.06480786
39	0x3d5e83a2	0.054324754
40	0xbcec7ca4	-0.028868027
41	0xbdacac08	-0.0843125
42	0x3d97c899	0.07411308
43	0xbde27c47	-0.1105886
44	0x3cf960ac	0.030441605
45	0x3da7af6c	0.08187756
46	0x3d755c85	0.059902687
47	0xbc30f9f4	-0.010801781
48	0xbd853a23	-0.06505229
49	0xbd45bec4	-0.04827763
50	0x3dd0e80d	0.1020051
51	0x3d705d0e	0.058682494
52	0xbc3bfd59	-0.011473977
53	0xbd39a647	-0.04532459
54	0x3daef0ad	0.08541999
55	0x3c6a9766	0.014318323
56	0x3d94bc60	0.07262492
57	0xbda4c0b6	-0.08044569
58	0x3cf80739	0.030276882
59	0x3b272cfb	0.0025508988
60	0xbdbc1b71	-0.091849215
61	0xbd8aa10f	-0.06769001
62	0x3d3358ab	0.043785732
63	0xbce7e161	-0.028305711
64	0x3d9a2fe9	0.075286694
65	0xbc44461c	-0.011979606
66	0xbb1ead60	-0.0024212226
67	0x3c349012	0.011020677
68	0xbc817163	-0.015801137
69	0xbb828b97	-0.0039839256
70	0x3b69911a	0.0035639466
71	0xbc6cb698	-0.014447831
72	0xbc0e6f17	-0.008693478
73	0x3d1db4a0	0.038502336
74	0x3c026ed4	0.007960994
75	0x3bb3f5d3	0.005491951
76	0xbc4fa4b4	-0.012673546
77	0xbc542a9c	-0.012949612
78	0x3cf4bd19	0.029875325
79	0xbd478a34	-0.048715785
80	0xbba49d80	-0.0050236583
81	0xbd2de4de	-0.042454593
82	0xbc19c649	-0.009385654
83	0x3cae5f2b	0.021285614
84	0xbd000433	-0.031254005
85	0x3ba6600c	0.0050773676
86	0x3c0fb695	0.008771558
87	0xbc945053	-0.018104708
88	0xbc6d6db2	-0.014491485
89	0x3d1fc4e3	0.039006125
90	0xbc934c07	-0.017980589
91	0xbcb7304c	-0.022361897
92	0x3ca96537	0.020678146
93	0x3c9a7c78	0.01885818
94	0xbd0033da	-0.03129945
95	0x3cd68299	0.02618532
96	0x3a9cd578	0.0011965474
97	0xbc8418d5	-0.016125122
98	0x3c11e919	0.0089056725
99	0x3c872064	0.016494937
100	0x3ca516fc	0.020152561
101	0xbceb54cd	-0.02872696
102	0x3c0c6c25	0.008570706
103	0x3d8509ee	0.064960346
104	0xbc15321e	-0.009106187
105	0xbbecc791	-0.0072259386
106	0x3d44b382	0.048022754
107	0x3c83d470	0.016092509
108	0xbcaf0bd8	-0.021367952
109	0x3d997506	0.074930236
110	0x3cd6f539	0.026239978
111	0xbd2f080c	-0.042732283
112	0x3c204dfb	0.009784217
113	0xbd043f05	-0.032286663
114	0x3cd32f60	0.025779426
115	0x3c2c20ae	0.010505838
116	0x3c069eab	0.00821654
117	0xbc9dd223	-0.01926524
118	0x3c7c7c0b	0.0154104335
119	0x3c751178	0.014957778
120	0x3bed9c59	0.007251304
121	0xbd93053c	-0.07178733
122	0xbce463fb	-0.027879706
123	0x3c679024	0.014133487
124	0xbd43aa01	-0.04776955
125	0xbbdfe244	-0.006832393
126	0xbb009063	-0.0019617311
127	0xbce1bbe0	-0.027555406
128	0x3cf8e282	0.030381445
129	0x3d62cb72	0.0553698
130	0x3d25bdae	0.040464096
131	0xbd93d586	-0.07218461
132	0x3baf58c9	0.00535116
133	0xbc35531c	-0.011067178
134	0xbc4fa9c1	-0.01267475
135	0xbd343c6b	-0.04400293
136	0x3c1fde76	0.009757629
137	0x3d221dd7	0.03957924
138	0x3d92aa22	0.071613565
139	0x3d783e39	0.060606215
140	0xbcca5a4a	-0.024701256
141	0xbda36b70	-0.079794765
142	0x3b9c0a21	0.0047619496
143	0x3d4d9230	0.050188243
144	0x3c0e1580	0.008672118
145	0xbd034280	-0.03204584
146	0x3d204be6	0.039134882
147	0x3d12f382	0.03587676
148	0xbc32b702	-0.01090789
149	0xbd11b961	-0.03557718
150	0xbd7cf96f	-0.061761316
151	0xbbfa71a9	-0.007642944
152	0xbc1e67af	-0.009668275
153	0xbc48eb9f	-0.012263208
154	0xbd9bba37	-0.07603877
155	0xbd25ee0f	-0.040510233
156	0x3d029f5f	0.03189027
157	0xbc27db3c	-0.010245141
158	0xbc747d5c	-0.014922466
159	0xbd980163	-0.074221395
160	0x3d181495	0.037129004
161	0x3d901e71	0.07037056
162	0x3ac2111f	0.0014806128
163	0xbc55134c	-0.013005089
164	0x3c37ff35	0.01123028
165	0x3d2af95b	0.04174171
166	0xbbd236a8	-0.006415207
167	0x3a13d8f8	0.0005639936
168	0xbc4d71d2	-0.012539344
169	0x3d809cb8	0.06279892
170	0x3c6a9ecf	0.0143200895
171	0xbdb0de5a	-0.0863616
172	0xbd33dc4f	-0.043911275
173	0x3d3d982c	0.0462877
174	0x3c26a6ef	0.010171636
175	0x3d565909	0.052331004
176	0xbd494a1f	-0.049142953
177	0x3d7cfd72	0.06176514
178	0x3c94f99b	0.018185427
179	0xbbb2cfb5	-0.0054568895
180	0xbc40149f	-0.011723666
181	0x3d4c2a29	0.049844895
182	0x3c1150cc	0.008869361
183	0xbc8c3589	-0.017115371
184	0x3d80f9b4	0.06297627
185	0x3c36799a	0.0111373905
186	0x3ce8d2ba	0.028420795
187	0xbcc7aaa6	-0.024373364
188	0x3d6d84ad	0.057987858
189	0xbcea153f	-0.028574584
190	0xbc54cdab	-0.012988488
191	0xbc0a893b	-0.00845557
192	0x3ca9170b	0.02064087
193	0x3cc6bec1	0.02426088
194	0xbdcfcf5b	-0.10146972
195	0x3c8cf98f	0.017208843
196	0x3d9fdcce	0.07805787
197	0x3c588faf	0.013217851
198	0x3d779ce4	0.060452357
199	0x3d7b45a9	0.06134573
200	0xbd00c223	-0.031435143
201	0xbdbead97	-0.093104534
202	0xbd5c9fc5	-0.053863306
203	0x3d53543f	0.051594015
204	0x3ddd68ef	0.1081103
205	0xba87a695	-0.0010349328
206	0xbdccacbd	-0.09993885
207	0xbd941d6d	-0.07232175
208	0xbddaa18f	-0.10675346
209	0x3b3f6dd9	0.0029209761
210	0xbcbd1258	-0.023080036
211	0x3d664f69	0.056228075
212	0x3cc02c74	0.023458697
213	0x3d9b62ba	0.0758719
214	0x3ba3f800	0.005003929
215	0x3d76adb2	0.060224243
216	0xbc12c6f7	-0.00895857
217	0xbd50c9b9	-0.050973628
218	0xbda8ccf0	-0.08242214
219	0xbcafc8a8	-0.021457985
220	0xbd6923d4	-0.056918934
221	0x3cbfba1f	0.02340418
222	0xbcd902d7	-0.026490612
223	0x3cc71808	0.024303451
224	0xbda2cdce	-0.079494104
225	0x3ada8b4f	0.0016673597
226	0x3d3f1a2a	0.04665581
227	0xbc92bce3	-0.017912334
228	0xbcda1879	-0.026622998
229	0xbcea3094	-0.028587617
230	0xbceb6180	-0.028733015
231	0xbe3cd1e2	-0.18439439
232	0xba5edcd4	-0.0008501534
233	0xbcf19bd0	-0.029493243
234	0xbd1630b1	-0.03666753
235	0xbd1b0f7b	-0.03785656
236	0x3db4346b	0.087990604
237	0xbca3fc70	-0.020017833
238	0xbb1f3a75	-0.0024296318
239	0x3d387cc6	0.04504087
240	0x3d5ec128	0.054383427
241	0x3d241409	0.04005817
242	0xbbb68576	-0.005570109
243	0x3cae158e	0.021250512
244	0xbd443113	-0.047898363
245	0x3bbd49e6	0.0057766316
246	0x3d14166f	0.036154207
247	0x3d840691	0.06446565
248	0xbc922666	-0.017840575
249	0xbd1d9432	-0.03847141
250	0xbcd2384c	-0.02566161
251	0x3cb09a7f	0.021558044
252	0x3d0652e2	0.032793887
253	0x3d2fc8e1	0.042916182
254	0x3c64f582	0.013974549
255	0x3cb088a0	0.021549523

lstm.bias_ih_l0 f4 [256]
0	0x3d7c00eb	0.061524313
1	0x3c71447b	0.0147258
2	0x3db3187a	0.08744903
3	0x3c3033c1	0.010754527
4	0xbc255224	-0.010090385
5	0xbd851ad6	-0.06499259
6	0x3c8a78bd	0.016903276
7	0x3dced462	0.100991026
8	0x3cf041e4	0.029328294
9	0x3dc75f8e	0.097350225
10	0x3cc3b063	0.023887819
11	0x3dd09013	0.1018373
12	0xbd479765	-0.048728365
13	0x3dfd4946	0.123674914
14	0x3d9afa81	0.07567311
15	0x3d3615cf	0.044454392
16	0x3d50c72f	0.050971206
17	0x3d6186f7	0.055060353
18	0x3da2fb6b	0.079581104
19	0x3da9f447	0.08298545
20	0xbc2a1d64	-0.010382984
21	0xbd3968ba	-0.04526589
22	0x3db1e77a	0.08686729
23	0x3d4c0e6a	0.049818434
24	0x3d36506a	0.044510283
25	0x3b5b6485	0.0033476662
26	0x3e05d9e2	0.13071397
27	0x3bbcffe0	0.0057678074
28	0x3c506b3d	0.01272088
29	0x3d2631b9	0.040574763
30	0x3d07eef5	0.03318687
31	0x3cbae1c8	0.022812739
32	0x3d2c28b0	0.04203099
33	0x3c7a291b	0.015268589
34	0x3dc296da	0.09501429
35	0x3c5ec658	0.0135970935
36	0x3dc54446	0.09632163
37	0x3dd85774	0.10563555
38	0x3d391c3f	0.045192953
39	0x3de8ea3e	0.11372803
40	0x384776ca	4.7555928e-05
41	0x3df3f396	0.11911695
42	0x3d5d2466	0.05398979
43	0x3e4e6e5b	0.20159285
44	0x3e1744ae	0.14772293
45	0x3dad634d	0.08466206
46	0xbd0015a2	-0.03127063
47	0x3d82d3c3	0.063880466
48	0x3d9c312a	0.07626565
49	0x3e381db3	0.1798008
50	0x3dca6603	0.098827384
51	0x3d9ee676	0.07758801
52	0xbcb5e49c	-0.022203736
53	0x3b693b70	0.0035588406
54	0xbd00a601	-0.031408314
55	0x3caf5e96	0.021407407
56	0x3c9a3362	0.01882333
57	0xbcc91320	-0.024545252
58	0x3d45decb	0.048308175
59	0x3b8fb09f	0.0043850685
60	0x3e0dde60	0.1385436
61	0x3c236476	0.009972682
62	0x3dfcbc9d	0.12340663
63	0x3aa97d4f	0.0012931022
64	0x3db3c200	0.08777237
65	0x3d896f18	0.067106426
66	0x3d25bed0	0.040465176
67	0xbe097879	-0.13424863
68	0xbc9e7017	-0.019340558
69	0x3caebb79	0.021329628
70	0x3d30cd3c	0.043164477
71	0x3ba5fdd5	0.0050656595
72	0xbdd3f1bb	-0.10348841
73	0xbde651f3	-0.11246099
74	0xbd0447e7	-0.032295134
75	0x3d8cb8a6	0.068711564
76	0x3d96228b	0.07330807
77	0xbe22c92c	-0.15897053
78	0x3d84d88c	0.064866155
79	0xbddb7f57	-0.107176475
80	0x3c385e20	0.01125291
81	0xbcbbe959	-0.022938417
82	0x3dc2501e	0.094879374
83	0xbd04d55e	-0.032430045
84	0xbd6ac66f	-0.057318147
85	0xbc895009	-0.016761797
86	0xbdf4dbe7	-0.119560055
87	0xbd8ce004	-0.06878665
88	0xbcde7894	-0.027157106
89	0xbe1bc4df	-0.15211819
90	0xbdacb416	-0.08432786
91	0xbd314770	-0.04328102
92	0xbdabc16f	-0.08386504
93	0xbccb6316	-0.024827521
94	0xbda32394	-0.0796577
95	0x3ce80370	0.028321952
96	0x3e058977	0.1304072
97	0xbda7b8c0	-0.08189535
98	0x3b945f05	0.004527929
99	0x3d9f53a9	0.07779629
100	0xbd97fd78	-0.07421392
101	0xbd19aea1	-0.037520055
102	0xbd9fe635	-0.078075804
103	0x3cc703ec	0.024293862
104	0xbc85e706	-0.016345512
105	0xbd46ab6b	-0.04850332
106	0xbd86f877	-0.0659036
107	0xbdea2113	-0.1143209
108	0xbe4460ea	-0.19177595
109	0x3dab2216	0.08356111
110	0xbc024c26	-0.0079527255
111	0x3d4c1677	0.04982611
112	0xbd68ac5b	-0.056804996
113	0xbc582c19	-0.013194107
114	0x3d1c51d4	0.038163975
115	0xbd327846	-0.043571733
116	0xbb408bcd	-0.0029380203
117	0xbd58836a	-0.0528597
118	0xbd1c2fb4	-0.03813143
119	0xbdf49ed6	-0.11944358
120	0xbd27d921	-0.040978555
121	0xbcf274a1	-0.029596629
122	0x3c18872f	0.009309574
123	0x3c06648d	0.008202684
124	0xbd9e6ebd	-0.077359654
125	0xbd64ca35	-0.055856902
126	0xbce607d6	-0.028079908
127	0xbc9b661d	-0.01896959
128	0xbd3f9316	-0.04677113
129	0x3dd4cccd	0.10390625
130	0xbd736ee7	-0.059431937
131	0xbda439ea	-0.08018859
132	0x3cfa16b5	0.030528406
133	0x3dd271af	0.1027559
134	0x3cafe848	0.021473065
135	0x3dd13bb3	0.10216465
136	0xb9935964	-0.00028104626
137	0xbc0293c9	-0.007969805
138	0xbddbb9b6	-0.10728781
139	0x3d0e52ac	0.03474681
140	0x3d9de771	0.077101596
141	0xbd4ce52f	-0.050023254
142	0xbca365ed	-0.019946063
143	0xbcc163f0	-0.023607224
144	0xbdc4fc1d	-0.09618399
145	0xbc368c6c	-0.011141878
146	0xbe286944	-0.16446406
147	0xbc061f42	-0.008186163
148	0xbc52d992	-0.012869256
149	0xbcacae15	-0.021079103
150	0xbcfe702a	-0.031059343
151	0xbc9feba5	-0.019521544
152	0x3c443b8e	0.01197709
153	0x3dd48317	0.10376566
154	0x3cd1ac2c	0.025594793
155	0x3dc9ecd8	0.098596275
156	0xbd87ef68	-0.0663746
157	0x3d7d3914	0.061822012
158	0x3cc26428	0.023729399
159	0x3cc5c740	0.024142861
160	0xbded6a2b	-0.115925156
161	0x3d9b0ba2	0.07570578
162	0x3d2e4de7	0.042554762
163	0xbdb3c655	-0.08778063
164	0xbe043930	-0.1291244
165	0xbd70ba89	-0.058771644
166	0xbd563b4a	-0.052302636
167	0xbdd3715b	-0.10324355
168	0x3c813016	0.01577
169	0xbd71ebee	-0.05906289
170	0xbdb51bd0	-0.088431954
171	0x3da0a190	0.078433156
172	0x3d641ab4	0.05568953
173	0x3e164d24	0.14677864
174	0x3dc20158	0.094729125
175	0xbde5010f	-0.111818425
176	0x3dcbeb87	0.09957033
177	0x3cdfdfdc	0.027328424
178	0xbc1376fd	-0.009000537
179	0xbda4e9e7	-0.08052426
180	0x3baa92ea	0.005205502
181	0x3dbf1e96	0.09332006
182	0xbd2575b3	-0.04039545
183	0x3cacd05e	0.021095451
184	0xbd62adf3	-0.055341672
185	0x3d33c6fd	0.043890942
186	0xbdc9f467	-0.09861069
187	0x3de3bafc	0.11119649
188	0xbdb204a1	-0.08692289
189	0x3d0a4405	0.033756275
190	0x3e27d452	0.16389588
191	0xbcfca357	-0.030839605
192	0xbd000524	-0.031254902
193	0x3d721183	0.05909873
194	0xbd9428bc	-0.07234332
195	0x3d11eca0	0.035626054
196	0xbc460853	-0.012086946
197	0xbda15ead	-0.07879386
198	0xbd9b620d	-0.07587061
199	0x3d1e3947	0.038628843
200	0x3c4d61ff	0.012535571
201	0xbb82a88c	-0.0039873775
202	0xbe09ec8a	-0.13469139
203	0x3d6c31ec	0.057664797
204	0x3d86a5a9	0.06574566
205	0x3e2166d8	0.15761888
206	0x3cb10249	0.021607535
207	0x3dac9d9d	0.084285
208	0x3e31cc50	0.17363095
209	0x3cd6326e	0.026147094
210	0x3d64a159	0.055817936
211	0x3de38a93	0.11110415
212	0xbd80c8aa	-0.06288274
213	0xbdc2db8f	-0.09514534
214	0xbad18684	-0.0015985523
215	0x3d8fdc00	0.070243835
216	0x3d9f7ca2	0.07787444
217	0x3ddec0b3	0.10876598
218	0xbbbad3f1	-0.005701535
219	0xbd89f664	-0.067364484
220	0xbd07f44f	-0.033191975
221	0x3d176db7	0.036969867
222	0x3cdfa39b	0.027299693
223	0x3d862c65	0.06551436
224	0x3d2cabdd	0.04215609
225	0x3ceb1fc8	0.028701678
226	0xbd6d3a5b	-0.05791698
227	0xbcfb93c2	-0.030710105
228	0x3d9cc65f	0.07655024
229	0x3d686923	0.05674089
230	0xbcf08b14	-0.029363193
231	0x3d69e94c	0.057107255
232	0xbd9c6ec8	-0.07638317
233	0x3cb139c9	0.021634
234	0xbd490608	-0.049078017
235	0x3db5e8c9	0.08882291
236	0x3de08a5f	0.10963892
237	0xbd08a301	-0.033358578
238	0xbd4b201f	-0.04959118
239	0x3ba4215f	0.005008861
240	0x3e104cca	0.14091793
241	0x3e0b687a	0.13614073
242	0x3d405631	0.0469572
243	0x3d376581	0.044774536
244	0xbd82d564	-0.06388357
245	0x3d6da290	0.05801636
246	0x3c9a0873	0.018802857
247	0x3c214fcb	0.009845684
248	0x3d8e0f43	0.06936505
249	0x3daa0276	0.08301251
250	0x3b727ce2	0.0037000705
251	0x3d6d7418	0.057972044
252	0x3e15d2c0	0.14631176
253	0x3da07649	0.07835061
254	0x3c9fc40f	0.019502668
255	0x3c960612	0.018313441

lstm.bias_hh_l0 f4 [256]
0	0x3d917884	0.07103065
1	0x3d72d1ea	0.05928222
2	0x39245a04	0.00015673792
3	0xbd24cc10	-0.04023367
4	0x3d8a7c59	0.06761999
5	0xbd309c3a	-0.04311774
6	0xbc873f4e	-0.016509678
7	0xbdaf5547	-0.08561187
8	0xbd86db24	-0.065847665
9	0x3da82447	0.08210044
10	0xbd2266e7	-0.039648917
11	0xbcfc58de	-0.030804094
12	0xbd49289b	-0.04911099
13	0x3df4234d	0.119207956
14	0xbb6eb6b3	-0.0036424815
15	0xbc1746eb	-0.009233217
16	0x3df622d9	0.120183654
17	0x3d3c9cb9	0.0460479
18	0xbcc03012	-0.023460422
19	0x3e076505	0.1322213
20	0x3d9b55a1	0.07584692
21	0x3c846cbd	0.016165132
22	0x3dd647d7	0.10462921
23	0x3d3ee565	0.046605486
24	0x3d1d1077	0.03834578
25	0x3cef2d95	0.02919654
26	0x3c3715b1	0.011174605
27	0x3c900198	0.017578885
28	0x3d69d097	0.057083692
29	0x3d044d13	0.032300066
30	0xbd297341	-0.04136968
31	0xbcdd980c	-0.02705004
32	0x3e014ce3	0.12626986
33	0x3d01609b	0.03158627
34	0x3d7b23bb	0.061313372
35	0x3c86fefa	0.016479004
36	0x3d71272f	0.05887526
37	0x3d98e250	0.07465041
38	0x3d717717	0.058951464
39	0x3c02c267	0.007980919
40	0x3d069390	0.03285557
41	0xbd5569fe	-0.052103035
42	0x3ce1929a	0.027535725
43	0x3e0c9060	0.1372695
44	0x3dca31ce	0.09872781
45	0x3de39453	0.11112275
46	0x3b84cfe9	0.004053105
47	0x3d9577cb	0.07298239
48	0x3de0ba00	0.10972977
49	0x3e3e32c8	0.18574059
50	0x3e0fc38a	0.14039436
51	0x3c95e174	0.018295981
52	0xbc120173	-0.008911478
53	0xbcf68018	-0.030090377
54	0x3d139bf5	0.036037404
55	0x3ba886a7	0.005143005
56	0x3c11f564	0.008908603
57	0x3d747dde	0.05969035
58	0x3d1ead7e	0.038739674
59	0x3e26f30c	0.16303653
60	0x3defdcdb	0.11712047
61	0xbc4e00f9	-0.012573474
62	0x3d5a1723	0.05324472
63	0xbb2d042c	-0.0026400192
64	0xbcc2debf	-0.023787854
65	0xbc4a7210	-0.012356296
66	0xbbbc14c7	-0.0057397815
67	0xbe09d447	-0.13459884
68	0x3cc27b1b	0.023740342
69	0x3d7b32a3	0.061327588
70	0x3db2a894	0.0872356
71	0x3cd40984	0.025883444
72	0xbd391ce0	-0.045193553
73	0xbdaf2e2c	-0.085537285
74	0xbbcee251	-0.0063136
75	0x3ca8197e	0.020519968
76	0x3dc0537b	0.09390923
77	0xbe3ca3bf	-0.18421839
78	0xbbc92148	-0.0061380006
79	0xbddad968	-0.10685998
80	0x3e079127	0.13238965
81	0xbbe4699f	-0.006970599
82	0xbd8dd3f3	-0.06925192
83	0x3cb1aa4e	0.021687653
84	0x3d104b98	0.03522834
85	0xbd24c421	-0.040226106
86	0xbcbec418	-0.023286864
87	0xbca2fbdd	-0.019895488
88	0x3db1af9f	0.08676075
89	0xbdb13700	-0.086530685
90	0xbd0803bf	-0.033206698
91	0xbdb2f875	-0.08738796
92	0xbc2ee41a	-0.010674501
93	0xbc311f2d	-0.010810656
94	0x3d033a09	0.03203777
95	0x3bb23fd8	0.0054397397
96	0x3dcdbdf2	0.10045995
97	0xbde12a81	-0.10994435
98	0xbd8a44d3	-0.067514084
99	0x3d5419f4	0.051782563
100	0xbd9fad10	-0.07796681
101	0xbb8ab12a	-0.0042325454
102	0xbceeb29a	-0.029137898
103	0x3d480813	0.048835825
104	0x3d828e17	0.06374758
105	0xbd799961	-0.06093729
106	0xbd8190e8	-0.06326467
107	0xbe758e5d	-0.23980089
108	0xbe05c45c	-0.13063186
109	0x3d55e280	0.05221796
110	0xbd307908	-0.043084174
111	0x3cb812d5	0.022469917
112	0xbe128212	-0.1430743
113	0xba464690	-0.0007563615
114	0xbd422d4f	-0.04740649
115	0xbd46b606	-0.048513435
116	0x3db00b1c	0.08595869
117	0xbd81c01d	-0.06335471
118	0xbca64613	-0.020297086
119	0xbcb3354b	-0.021875998
120	0x3b780bf5	0.0037848924
121	0x3d694239	0.05694792
122	0xbd115d7b	-0.03548954
123	0x3c7de032	0.015495347
124	0xbdd13878	-0.10215849
125	0xbdc526ab	-0.09626516
126	0xbaa8f0de	-0.0012889167
127	0x3c60ef8d	0.013728988
128	0x3e0a500b	0.13507096
129	0x3dd29105	0.102815665
130	0xbde995c9	-0.114055224
131	0x3d57f5f9	0.052724812
132	0xbc182c47	-0.0092879
133	0xbd471eaa	-0.048613228
134	0x3dafc194	0.08581844
135	0x3dd3c6d5	0.103406586
136	0xbd943a49	-0.072376795
137	0xbe229f28	-0.15881026
138	0x3cfba86d	0.03071996
139	0x3df3c592	0.11902918
140	0x3da18a40	0.07887697
141	0x3d5a39c1	0.053277735
142	0xbdc5c740	-0.096571445
143	0x3d2623e4	0.04056157
144	0xbd366875	-0.04453321
145	0x3b6114a9	0.003434459
146	0xbe24a23d	-0.16077514
147	0x3dfec310	0.12439549
148	0x3da0d258	0.0785262
149	0xbd7271a0	-0.059190392
150	0x3d39bf60	0.045348525
151	0x3d9afd86	0.07567887
152	0x3cd7ef7e	0.026359316
153	0xbd8a860b	-0.06763848
154	0x3d0a7e63	0.033811938
155	0xbc318f39	-0.01083737
156	0x3d807f8b	0.06274327
157	0xbd0b15dc	-0.033956394
158	0xbdc00bff	-0.09377288
159	0xbdd97a59	-0.10619039
160	0xbdab1880	-0.083542824
161	0xbd50c7f5	-0.050971944
162	0xbcc3a320	-0.023881495
163	0xbd1b96d6	-0.037985645
164	0xbe0379ab	-0.12839381
165	0xbda18288	-0.07886225
166	0x3c6f49bb	0.014604981
167	0x3d8a7de5	0.06762294
168	0x3dfeceb5	0.1244177
169	0x3c40afb1	0.011760638
170	0xbb74bb72	-0.0037343171
171	0xbd9d89c1	-0.0769229
172	0x3d82526b	0.06363376
173	0x3dd2e053	0.10296693
174	0xbd6fa504	-0.05850698
175	0xbda1de1e	-0.079036936
176	0xbda13248	-0.078709185
177	0xbd110f94	-0.035415247
178	0xbdbd0d5c	-0.09231064
179	0x3d960ec0	0.07327032
180	0xbd5406d2	-0.051764317
181	0xbd9dc6b1	-0.07703913
182	0xbcd64992	-0.026158128
183	0x3ca6ad07	0.020346178
184	0x3d98c84c	0.074600786
185	0xbddd2fcc	-0.10800132
186	0xbd47835c	-0.04870926
187	0x3e32a768	0.17446673
188	0x3dc3df73	0.09564104
189	0x3dee29f5	0.116290964
190	0x3cfd44ab	0.030916533
191	0xbaeb8b66	-0.0017970621
192	0x3e000849	0.1250316
193	0x3dc23bcb	0.09484061
194	0x3d84b907	0.06480604
195	0x3d3055d3	0.0430506
196	0x3d39e359	0.04538283
197	0xbd81ad15	-0.06331841
198	0x3da32a64	0.0796707
199	0xbb84dd73	-0.004054719
200	0xbdb65aa5	-0.08904008
201	0x3dbe4304	0.09290126
202	0xbc5575b8	-0.013028555
203	0x3dae73d1	0.08518184
204	0xb8775016	-5.8963975e-05
205	0x3e47b715	0.19503434
206	0x3cb867ae	0.022510376
207	0x3aaf202c	0.0013361028
208	0x3cd1f8f5	0.025631407
209	0x3d48f877	0.04906508
210	0x3d72093a	0.05909083
211	0x3db1c64d	0.08680401
212	0xbd2dcb47	-0.04243019
213	0xbcad3829	-0.021144943
214	0x3d8e626c	0.06952366
215	0x3d424c54	0.047436073
216	0x3da86b0d	0.08223543
217	0x3bee9369	0.0072807563
218	0xbd74e4f0	-0.059788644
219	0xbd5bf470	-0.05369991
220	0x3d728815	0.05921181
221	0xbbeeb155	-0.007284323
222	0x3d62657f	0.055272575
223	0xbd7c65ea	-0.06162063
224	0x3d4762b6	0.048678122
225	0x3d6b4743	0.057441007
226	0xbadd0a5a	-0.0016864047
227	0x3ca99471	0.020700665
228	0x3d374689	0.044745002
229	0x3d28b464	0.04118766
230	0xbcafe2c9	-0.021470444
231	0x3c8b137c	0.016977064
232	0xbd2d8f02	-0.04237271
233	0xbd8ffdb6	-0.070308134
234	0xbcd30760	-0.025760353
235	0x3dd08880	0.10182285
236	0x3d01ec0a	0.031719245
237	0x3d66228c	0.05618529
238	0x3b390441	0.0028231295
239	0x3dcbde8d	0.099545576
240	0x3de052b3	0.109532736
241	0x3df1ef12	0.11813177
242	0x3d2c7bba	0.042110182
243	0x3d78e116	0.060761534
244	0x3d2ee093	0.04269464
245	0x3da47b0b	0.08031281
246	0xbca4561e	-0.020060595
247	0x3db7ff71	0.089842685
248	0x3d31306d	0.043259073
249	0xbbba57ea	-0.0056867497
250	0x3d752508	0.05984977
251	0xbcea7845	-0.028621802
252	0x3cd17e82	0.025573019
253	0x3db98914	0.09059349
254	0x3d720ed3	0.05909617
255	0x3c0ee9ea	0.008722762

lstm.weight_ih_l0_reverse f4 [256, 40]
0	0xbdcd5de7	-0.10027676
1	0x3c8c4b01	0.017125608
2	0x3c3664b2	0.011132406
3	0xbcd16017	-0.025558515
4	0xbe13f313	-0.14448194
5	0xbb4c79ad	-0.0031200454
6	0x3bd63cbf	0.006538003
7	0x3d752a47	0.059854772
8	0x3dade326	0.08490591
9	0xbda14dea	-0.07876189
10	0x3dd294f0	0.10282314
11	0xbdb95e80	-0.090512276
12	0x3d39bdfb	0.045347195
13	0x3db5c368	0.088751614
14	0x3d942422	0.07233454
15	0x3d0a4552	0.033757515
16	0x3c82dd8a	0.015974779
17	0xbc030765	-0.007997368
18	0xbcbe99a6	-0.023266625
19	0x3d34b9ab	0.04412238
20	0x3db2233c	0.08698127
21	0x3d545ed3	0.051848244
22	0xbdc8691f	-0.09785675
23	0xbc6f8dda	-0.014621222
24	0xbd6447a3	-0.05573238
25	0x3d0fd592	0.035115786
26	0xbd794275	-0.060854394
27	0xbd71a626	-0.058996342
28	0xbda290c8	-0.07937771
29	0xbdd469a2	-0.1037171
30	0xbda8dd85	-0.082453765
31	0x3de275d9	0.11057634
32	0xbbee9da7	-0.007281977
33	0x3d1b8f98	0.03797874
34	0xbd248d38	-0.04017374
35	0x3c60003c	0.013671931
36	0x3dc0aa7f	0.094075195
37	0x3d263aee	0.040583543
38	0xbcbe52cc	-0.02323284
39	0x3d9f795b	0.077868186
40	0xbdf9dcfb	-0.12200352
41	0xbc1d8f5a	-0.009616697
42	0x3dbf4579	0.09339423
43	0xbb9e78f5	-0.0048361965
44	0xbd52f168	-0.051499754
45	0xbc924e7e	-0.017859694
46	0xbe0dd935	-0.13852389
47	0x3daa0416	0.083015606
48	0x3d48d204	0.04902841
49	0x3dd89ccd	0.105767824
50	0xbe246b1d	-0.16056485
51	0x3e0a3745	0.13497646
52	0x3b267773	0.0025400787
53	0xbcdf94bd	-0.027292604
54	0xbe0b4990	-0.1360228
55	0xbcbd23fe	-0.023088451
56	0x3c8eefae	0.017448273
57	0xbdb80dd5	-0.08987013
58	0xbdf8fd7a	-0.12157722
59	0x3e01f4d9	0.12691058
60	0xbd89c685	-0.06727318
61	0x3c05095b	0.008119906
62	0xbca216fe	-0.019786354
63	0xbcf85d1b	-0.030317834
64	0x3dc9f766	0.09861641
65	0x3d99da3f	0.0751233
66	0x3d224421	0.039615754
67	0x3d9f80d6	0.077882454
68	0x3dabf906	0.08397107
69	0x3d610ce9	0.054943953
70	0x3d870997	0.06593626
71	0x3e27a427	0.16371213
72	0x3d1be418	0.038059324
73	0xbd6177b8	-0.055045813
74	0x3dcbc6d1	0.099500306
75	0x3b8adb54	0.0042375717
76	0x3e0c32a5	0.13691194
77	0xbe184798	-0.14871061
78	0xbe4fab85	-0.20280273
79	0xbdcf7c7b	-0.10131165
80	0xbdeaa374	-0.114569575
81	0xbd8a259e	-0.06745456
82	0xbcf7fe0f	-0.030272512
83	0x3dad9f01	0.08477593
84	0x3d015582	0.031575687
85	0xbd09feac	-0.03369014
86	0xbc2609b3	-0.010134148
87	0xbd7af4f1	-0.06126875
88	0x3d68c505	0.056828517
89	0x3d6ffb99	0.05858955
90	0xbe04fa6f	-0.12986158
91	0x3e0c0f2b	0.13677661
92	0xbe0b41d1	-0.13599326
93	0x3cd6efd9	0.026237415
94	0xbe151e84	-0.14562422
95	0xbd91f002	-0.07125856
96	0xbde35716	-0.11100595
97	0xbc01abfc	-0.007914539
98	0x3c14be08	0.00907851
99	0x3db05028	0.086090386
100	0xbbd1af42	-0.006399066
101	0x3be7424e	0.0070574647
102	0x3c80402d	0.015655601
103	0xbda202ec	-0.079107136
104	0x3ce244f1	0.027620764
105	0xbde4094f	-0.11134588
106	0xbd3bddf5	-0.04586597
107	0xbd1dbc74	-0.0385098
108	0xbd7472cc	-0.05967979
109	0x3c9d530e	0.019204643
110	0xbdc13930	-0.09434736
111	0x3d5646e9	0.05231372
112	0xbdcd80f2	-0.1003436
113	0xbde4ecb4	-0.1117796
114	0xbd01ae63	-0.03166045
115	0xbcdabe06	-0.026701938
116	0xbcc7c21e	-0.024384554
117	0xbc1ecf30	-0.009692952
118	0xbe07e808	-0.13272107
119	0xbd3bc3e9	-0.04584113
120	0xbc918400	-0.017763138
121	0x3ce5aed4	0.028037466
122	0x3dcb43f3	0.0992507
123	0x3d74f4d9	0.059803817
124	0x3d84818e	0.06470023
125	0x3d0c7c0e	0.034297995
126	0x3d88aedd	0.066739775
127	0x3c3186a5	0.010835324
128	0x3dba890c	0.09108171
129	0x3d8cbdd9	0.06872148
130	0xbe185f32	-0.14880064
131	0xbc959741	-0.0182606
132	0xbd8bdbcf	-0.068290345
133	0xbdb880d7	-0.09008949
134	0xbdf7259c	-0.1206772
135	0x3ce7159b	0.028208544
136	0xbd45ebeb	-0.048320692
137	0x3cb88b19	0.022527264
138	0xbe17b002	-0.14813235
139	0x3ddcbea1	0.10778547
140	0x3dc42d7f	0.0957899
141	0x3d331d21	0.04372895
142	0xbd2c84ec	-0.04211895
143	0xbd822dd4	-0.06356397
144	0x3bd06d4d	0.006360686
145	0x3d851935	0.064989485
146	0x3d411357	0.047137585
147	0xbd2601c6	-0.040529035
148	0xbd70cca6	-0.058788918
149	0xbd757e5b	-0.059934955
150	0x3d882b8b	0.0664893
151	0x3d69d118	0.057084173
152	0x3db58dea	0.088649586
153	0x3b206102	0.0024471884
154	0x3db8cfc9	0.09024007
155	0x3df84ee5	0.12124423
156	0xbd303d69	-0.043027315
157	0xbd5a5f1e	-0.053313367
158	0xbc461fc2	-0.012092533
159	0x3dd50520	0.10401368
160	0xbdc4c40d	-0.09607706
161	0x3e6c171a	0.23055688
162	0x3e2a67c6	0.16641149
163	0x3e28fbf6	0.16502365
164	0x3b2d1f47	0.0026416348
165	0x3e2ddcd8	0.16978776
166	0x3c241a8b	0.010016094
167	0x3d416e67	0.04722443
168	0xbcd9b498	-0.026575372
169	0x3cf8160c	0.03028395
170	0x3d1b9865	0.03798713
171	0xbdc6d56e	-0.09708677
172	0xbcce8dd4	-0.025214113
173	0x3e047987	0.12936984
174	0x3db730ea	0.089448765
175	0x3d550e62	0.05201567
176	0xbdec44cb	-0.11536559
177	0xbd267f8e	-0.04064899
178	0x3da8ad4e	0.0823618
179	0x3db6edbe	0.089320645
180	0x3d7bcaf9	0.061472867
181	0x3d4d6e2e	0.050153904
182	0xbd9ed981	-0.07756329
183	0xbcefa933	-0.029255485
184	0x3dbaa079	0.09112639
185	0xbcc5e21e	-0.024155673
186	0x3d9a438b	0.07532414
187	0xbcfa9eb9	-0.030593263
188	0x3e0544df	0.13014553
189	0x3dc711d3	0.097201966
190	0xbceff832	-0.029293153
191	0x3da6bd3d	0.08141563
192	0x3d7bd934	0.061486438
193	0x3dceaf96	0.10092084
194	0xbd2359b5	-0.039880473
195	0x3e004492	0.12526157
196	0x3c999ff6	0.018753033
197	0xbdc9d9f3	-0.09856024
198	0x3ddb6cec	0.107141346
199	0x3e04ae42	0.12957099
200	0xbe0aa481	-0.13539316
201	0x3daaedf9	0.08346171
202	0x3cb40427	0.021974636
203	0xbdab1630	-0.08353841
204	0x3d9fe774	0.07807818
205	0xbd1294a6	-0.035786293
206	0x3be9d142	0.007135541
207	0xbbaa4e81	-0.0051973467
208	0xbd67c485	-0.0565839
209	0xbd54eb97	-0.05198249
210	0xbb68fa5e	-0.003554962
211	0xbd5645d1	-0.052312676
212	0x3cc558f2	0.024090264
213	0x3cbf853c	0.02337896
214	0x3d40b378	0.047046155
215	0x3c20a862	0.009805771
216	0x3d4456f2	0.04793448
217	0x3ca513bd	0.020151014
218	0x3de3c7ef	0.11122119
219	0xbb50a68b	-0.0031837549
220	0x3c964e64	0.018347926
221	0x3daa53b3	0.083167456
222	0x3d930174	0.071780115
223	0x3dd2cf7b	0.1029348
224	0x3d9aebee	0.07564531
225	0x3da952e7	0.082677655
226	0xbd91298a	-0.07088001
227	0xbd3213ae	-0.0434758
228	0x3d9a2774	0.07527056
229	0x3d86a2aa	0.065739945
230	0xbdc3ff42	-0.09570171
231	0xbdc72771	-0.0972432
232	0xbdcd3b43	-0.10021069
233	0x3d8efed3	0.069821976
234	0x3db07b16	0.08617227
235	0x3cf25240	0.029580235
236	0x3d0a4093	0.03375299
237	0xbe3f06c3	-0.18654923
238	0xbd317480	-0.043323994
239	0x3d597d5a	0.05309806
240	0xbdaf49e0	-0.085590124
241	0x3dce9aa1	0.10088087
242	0x3d8042c1	0.06262732
243	0x3e010c14	0.12602264
244	0xbd976e33	-0.07394066
245	0xbcd26470	-0.025682658
246	0xbd37a1e4	-0.044832125
247	0xbd3897e9	-0.045066748
248	0xb8f88c2d	-0.00011851671
249	0x3d82e5f2	0.06391515
250	0xbda51d4f	-0.08062231
251	0xbd938454	-0.07202974
252	0xbcf110cf	-0.02942696
253	0xbca87def	-0.020567862
254	0x3d32ac7d	0.04362153
255	0xbb453344	-0.003009037

lstm.weight_hh_l0_reverse f4 [256, 64]
0	0x3c1f81b7	0.009735516
1	0x3ca4422e	0.020051088
2	0xbc9edc44	-0.01939214
3	0xbc975d54	-0.01847712
4	0xbbb52933	-0.005528593
5	0xbc4fc6f2	-0.01268171
6	0x3c4c82d0	0.01248236
7	0xbbeb5f74	-0.0071830098
8	0xbb8b490f	-0.0042506526
9	0xbb176d19	-0.0023105799
10	0xbc31ce69	-0.010852435
11	0xbaefeda7	-0.0018305079
12	0x3992f620	0.00028030667
13	0xbc10c087	-0.008834965
14	0xbc776212	-0.015099065
15	0xbd1b533d	-0.03792118
16	0xbc669bfe	-0.014075277
17	0x3bd234d5	0.0064149895
18	0x3cfe33e8	0.03103061
19	0xbd05efd8	-0.032699436
20	0x3c840a30	0.016118139
21	0xbb322809	-0.0027184507
22	0xbc9ab57a	-0.018885363
23	0x3cd1c6a1	0.025607409
24	0x3ca53547	0.020167006
25	0x3bd6cdab	0.0065552793
26	0xbcd4f513	-0.025995767
27	0x3d2979ca	0.041375913
28	0x3c10a42f	0.008828207
29	0xbcadd032	-0.02121744
30	0x3ca65d33	0.020308113
31	0x3a685d7d	0.00088640285
32	0x3aead1a2	0.0017915259
33	0xbd13f041	-0.036117796
34	0xbccef057	-0.025261087
35	0xbad3bd75	-0.0016154485
36	0x3c0d7da5	0.008635913
37	0x3c6e9344	0.014561478
38	0xbbb6f637	-0.0055835503
39	0xbc280135	-0.010254194
40	0x3bb9b843	0.0056677177
41	0xbcdf00aa	-0.027221996
42	0x3c6b11a2	0.014347466
43	0xbc202ea0	-0.009776741
44	0xbc89100d	-0.016731286
45	0xbcda3818	-0.026638076
46	0xbd0a0de7	-0.033704665
47	0xbc732687	-0.014840729
48	0x3c46c090	0.012130871
49	0xba907a73	-0.0011022821
50	0x3cd8d4d1	0.026468666
51	0x3d233156	0.039841972
52	0xbc0231e9	-0.00794647
53	0x3bc989f9	0.006150481
54	0xba8d0499	-0.0010758816
55	0x3ce93adb	0.028470447
56	0x3c58dfd7	0.013236961
57	0xbc784100	-0.015152216
58	0xbc22e571	-0.009942398
59	0xbd11bbf8	-0.03557965
60	0xbc8cbebb	-0.017180791
61	0xbc1001a7	-0.008789456
62	0x3c262dae	0.010142727
63	0xbc995aec	-0.018720113
64	0xbbcd6163	-0.006267713
65	0x3bc7f3f3	0.006102079
66	0x3c45741d	0.012051609
67	0xbca0cf60	-0.019630134
68	0xbd4f75a1	-0.05064929
69	0xb92be402	-0.0001639277
70	0x3c6364c8	0.013879009
71	0xbb3e7f0e	-0.002906743
72	0x3d2f744d	0.042835522
73	0x3c7e6712	0.015527504
74	0xbcd2473f	-0.025668738
75	0xbc4a21e7	-0.0123371845
76	0xbc57e8d3	-0.013178068
77	0x3c45ad8b	0.012065302
78	0xbd64876a	-0.055793203
79	0xbd7181d7	-0.058961716
80	0xbd540942	-0.05176664
81	0x3d011240	0.031511545
82	0x3d846aaf	0.06465661
83	0xba7a99c8	-0.00095596584
84	0x3d6f671c	0.058447942
85	0xbc94c628	-0.018160895
86	0x3cd62fd4	0.026145853
87	0x3cc37d41	0.023863437
88	0x3d2b19b4	0.04177256
89	0x3d942ccc	0.07235107
90	0xbd322be8	-0.043498904
91	0x3d67f80b	0.056633037
92	0xbd74f918	-0.059807867
93	0xbd660986	-0.056161426
94	0x3d6d5e79	0.057951424
95	0xbc39b820	-0.011335403
96	0x3ba14d78	0.004922565
97	0xbd13254b	-0.035924237
98	0xbc9e62a2	-0.019334141
99	0x3c8536ad	0.016261423
100	0x3d07b41c	0.03313075
101	0x3cca93cc	0.024728678
102	0x3ce144e9	0.02749868
103	0xbd02d426	-0.0319406
104	0xbc1d8bbc	-0.009615835
105	0xbd204ff8	-0.039138764
106	0xbb79a37d	-0.0038091831
107	0xbcaa5922	-0.020794455
108	0x3cec7934	0.028866388
109	0xbd523ff1	-0.05133051
110	0xbd21bb81	-0.03948546
111	0xbd95ed0e	-0.07320605
112	0x3cda6915	0.026661435
113	0xbc310a75	-0.010805716
114	0x3c6532cc	0.013989162
115	0x3d0e6f17	0.034773912
116	0xbd2c0005	-0.041992206
117	0x3bc0b6fc	0.0058811884
118	0xbd0e6f99	-0.034774397
119	0x3d56005b	0.052246433
120	0x3cfecb4a	0.031102795
121	0x3d2a9e8c	0.04165511
122	0xba94896b	-0.0011332458
123	0xbd7a73a3	-0.061145436
124	0xbc4f66b1	-0.012658761
125	0xbd2280d5	-0.039673645
126	0xbcd2587e	-0.025676962
127	0xbcbdc59e	-0.02316552
128	0xbbc4a77d	-0.0060014115
129	0x3cbd8195	0.023133079
130	0xbcc600a8	-0.024170235
131	0xbc91d517	-0.017801804
132	0xbc0ef4b9	-0.008725339
133	0xbc7f1fde	-0.015571563
134	0x3cb0b8f5	0.02157257
135	0x3c58cc2c	0.013232272
136	0xbc156a4b	-0.0091195805
137	0x3c4bb8b6	0.012434175
138	0xbc3bf371	-0.011471615
139	0x3bbd9064	0.005785035
140	0xbbd2829d	-0.0064242617
141	0xbbea4381	-0.0071491604
142	0xbbccd9b3	-0.0062515377
143	0xbd0340c9	-0.032044206
144	0xbca49a13	-0.020093
145	0x3ca33334	0.019921876
146	0x3cd108d4	0.025516905
147	0xbd32ed21	-0.043683175
148	0x3c0faedf	0.00876972
149	0xbcfd4d56	-0.030920666
150	0xbbd896c2	-0.0066097686
151	0x3c43910c	0.011936437
152	0x3b41c93b	0.0029569406
153	0xbc490b8b	-0.012270818
154	0xbc809542	-0.015696172
155	0x3cd08be4	0.02545733
156	0xbcd9d743	-0.026591903
157	0xbce4c796	-0.027927201
158	0xb98dcafc	-0.0002704485
159	0x3c94a3f5	0.018144587
160	0x3bc4139d	0.0059837834
161	0xbb8de471	-0.004330211
162	0xbc4695df	-0.012120693
163	0x3ab191cc	0.0013547479
164	0xbcbb9c58	-0.022901699
165	0xbb10085a	-0.0021977634
166	0x3cade7ed	0.021228755
167	0xbc3e8141	-0.011627496
168	0x3cf95a36	0.030438524
169	0xbbaa698c	-0.0052005704
170	0xbb5eff0e	-0.0034026536
171	0x3c0f34ec	0.008740645
172	0x3bfaed44	0.007657679
173	0xba474c8e	-0.0007602655
174	0x3c5935a8	0.013257422
175	0x3b57186e	0.0032820958
176	0x3d0ecb49	0.034861837
177	0xbc339586	-0.010960942
178	0x3d19ff9f	0.037597295
179	0x3c7288b4	0.0148031
180	0x3c7559ba	0.014975006
181	0xbb16b236	-0.0022994406
182	0xbc14bc89	-0.009078153
183	0x3ccd5456	0.025064629
184	0x3c352ebd	0.011058507
185	0x3c5b573a	0.013387496
186	0xbb59e322	-0.0033246954
187	0xbd0e2008	-0.034698516
188	0xbc8c113b	-0.01709806
189	0xbb60b4e6	-0.0034287511
190	0xbcc52c55	-0.02406899
191	0x3a9dd1b9	0.0012040652
192	0x3c3b0acf	0.011416151
193	0xbc4a8230	-0.012360141
194	0xbc1b1ce6	-0.009467339
195	0xbc1f3893	-0.009718078
196	0x3d053619	0.032522295
197	0xbc6a18e0	-0.014288157
198	0x3c660e4a	0.014041493
199	0xbc46359f	-0.012097745
200	0xbca38588	-0.019961134
201	0x3b7fad7a	0.0039013312
202	0x3b52781b	0.0032115045
203	0x3bafb9cf	0.0053627263
204	0x3bca192a	0.0061675506
205	0xbcbacc33	-0.022802448
206	0x3c9a3eaa	0.018828709
207	0x3b1b11a3	0.0023661635
208	0xbcb3b5cf	-0.021937279
209	0x3c069dec	0.008216362
210	0x3bc23bfe	0.005927562
211	0x3bbac515	0.0056997635
212	0xb997ec1d	-0.00028976882
213	0xbc293069	-0.010326483
214	0x3c02188c	0.007940423
215	0xbc4bdbb7	-0.012442521
216	0xbcbcb7b9	-0.023036825
217	0x3a604fc5	0.00085568085
218	0x3c9e3e77	0.019316895
219	0x3cadaada	0.021199632
220	0x3cac4001	0.021026613
221	0x3badabe8	0.005300034
222	0xbc828480	-0.015932322
223	0x3c80c4ff	0.015718935
224	0x3ad617d0	0.0016334001
225	0xbc64c62c	-0.0139632635
226	0x3b8ba595	0.0042616823
227	0xbcf71775	-0.030162552
228	0xbc70cacd	-0.014696789
229	0xbb2e3779	-0.0026583357
230	0xbc9e34da	-0.019312311
231	0xbb9c7504	-0.0047746915
232	0x3c9f6a59	0.01945989
233	0xbc887862	-0.016658965
234	0x3af7dc0f	0.0018910187
235	0x3d0a6feb	0.03379814
236	0xbc9f195d	-0.019421274
237	0x3c8748a0	0.016514122
238	0x3c1824a1	0.009286077
239	0x3ce194c6	0.027536761
240	0x3c4164ab	0.011803786
241	0x3c38b1e8	0.011272885
242	0x3c3a1d19	0.0113594765
243	0x3a754825	0.00093567587
244	0x3c522b3c	0.012827691
245	0xbc4e0f27	-0.012576855
246	0x3cb5eeb9	0.022208558
247	0xbce410d5	-0.027840057
248	0xbb80b20a	-0.003927474
249	0x3a82f3e8	0.0009990903
250	0x3b07a91f	0.002070017
251	0x3ba1dad7	0.004939418
252	0xbc6f7f71	-0.014617787
253	0x3b4105c3	0.0029452897
254	0x3c213e4c	0.009841513
255	0x3a84ca88	0.001013116

lstm.bias_ih_l0_reverse f4 [256]
0	0x3cb7de22	0.022444788
1	0xbd0898bf	-0.033348795
2	0xbd580326	-0.052737378
3	0x3e1427d4	0.14468318
4	0x3dd82084	0.10553077
5	0xbcf52b39	-0.029927837
6	0x3d1786e3	0.036993872
7	0x3d5f6285	0.054537315
8	0x3e0d076c	0.13772362
9	0x3d9ec82d	0.07753024
10	0x3d2fd414	0.042926863
11	0x3d59bd82	0.053159244
12	0x3d1fd6ab	0.039023083
13	0xbd4eb6a1	-0.050467137
14	0xbc9db7ae	-0.019252624
15	0x3d90e35d	0.07074616
16	0x3d60647f	0.05478334
17	0xbc0697a8	-0.008214869
18	0x3deab5b0	0.114604354
19	0xbd134ef8	-0.035963982
20	0x3ca36ea5	0.01995022
21	0x3dcda960	0.10042071
22	0x3e0e0225	0.13868006
23	0x3d9ffb80	0.07811642
24	0xbd52484e	-0.051338486
25	0x3e54390b	0.20724885
26	0xbc0b7495	-0.008511682
27	0xbc651f4a	-0.013984511
28	0xbcc57fb1	-0.02410874
29	0x3baa2692	0.005192586
30	0x3e45e1a1	0.19324352
31	0x3d96cc25	0.07363156
32	0x3dd236fb	0.10264393
33	0x3e048a8a	0.12943473
34	0xbaea105b	-0.0017857658
35	0x3dba6938	0.091021
36	0x3d95bcfb	0.07311436
37	0xbdb8a150	-0.09015143
38	0x3cb7bef9	0.02242993
39	0x3d49eca8	0.04929796
40	0x3cb410df	0.021980701
41	0x3e126c94	0.14299232
42	0x3d190ea7	0.03736749
43	0x3bd7a58e	0.006581015
44	0xbd64154b	-0.05568437
45	0xbda02712	-0.07819952
46	0x3d60d33b	0.054888945
47	0x3cb5f60a	0.022212047
48	0x3db00eda	0.08596583
49	0x3ca240c9	0.019806283
50	0x3dbd6620	0.092479944
51	0x3e1f0f30	0.15533137
52	0x3d590272	0.052980848
53	0x3cd0a190	0.025467664
54	0x3d421bed	0.047389913
55	0x3d8c6824	0.06855801
56	0x3de0abab	0.10970243
57	0x3e33aabb	0.17545597
58	0x3b8a7de9	0.0042264354
59	0x3de39024	0.11111477
60	0x3dd0d358	0.101965606
61	0x3d208c9a	0.039196588
62	0x3d95793c	0.07298514
63	0x3d18d732	0.0373146
64	0x3dee11e0	0.11624503
65	0x3c063bcf	0.00819297
66	0x3d2e1192	0.042497225
67	0x3d88977b	0.066695176
68	0x3dcef91e	0.10106109
69	0x3b21d716	0.0024694852
70	0xbd522d5d	-0.051312793
71	0xbd26ced0	-0.040724576
72	0x3be0dfab	0.006862601
73	0xba7d0d65	-0.000965318
74	0x3ce416d1	0.027842911
75	0x3ca3fa8c	0.020016931
76	0x3d485b47	0.048915174
77	0x3e0c98d7	0.13730179
78	0x3da97b7f	0.08275508
79	0xbcfef17c	-0.031121008
80	0x3e09b0c1	0.13446333
81	0xbd3a485e	-0.04547917
82	0x3dd6b466	0.10483627
83	0x3cfbea1e	0.030751284
84	0x3d0462c9	0.03232077
85	0x3cf579c3	0.029965287
86	0x3dc80528	0.097666085
87	0x3deef745	0.11668257
88	0xbd55d146	-0.05220153
89	0x3d87f2a7	0.06638079
90	0xbbb4236b	-0.005497386
91	0xbb0294bc	-0.0019925078
92	0x3dc32d3a	0.09530111
93	0xbd843acc	-0.06456527
94	0x3de34b41	0.11098338
95	0x3bff7aee	0.007796637
96	0x3da3fe76	0.08007519
97	0x3d3aeb79	0.04563472
98	0x3d36e4b0	0.044651687
99	0x3e03c764	0.1286903
100	0x3db14af0	0.08656871
101	0xbc8c4dcc	-0.01712694
102	0x3e12141e	0.14265487
103	0x3c11d8e2	0.008901807
104	0x3df46c0f	0.11934673
105	0xbce90480	-0.028444529
106	0xbd33ece3	-0.043927085
107	0xbcf5cfbc	-0.030006282
108	0x3dd00c46	0.10158591
109	0x3d5cb253	0.053881
110	0x3d9187d2	0.07105984
111	0x3e177227	0.1478964
112	0xbc4a892c	-0.012361806
113	0x3dc69b59	0.09697599
114	0x3d240122	0.040040143
115	0x3d63895e	0.055550925
116	0x3b1bd11e	0.0023775767
117	0x3d0a095c	0.033700332
118	0xbcef87ff	-0.029239653
119	0x3e0edd57	0.13951622
120	0x3d252b3d	0.04032444
121	0x3df7faef	0.12108409
122	0x3d887475	0.066628374
123	0x3d4d90a8	0.050186783
124	0x3c03577d	0.008016464
125	0x3cc706ae	0.024295177
126	0x3ad78c92	0.0016445091
127	0x3d450326	0.048098706
128	0x3d78f346	0.06077888
129	0xbe15ca0d	-0.14627858
130	0x3df6691f	0.12031769
131	0xbd107453	-0.035267185
132	0x3c2d1e69	0.010566332
133	0x3db2bb25	0.08727101
134	0x3d5e2f4d	0.05424433
135	0x3cd929e7	0.026509238
136	0x3cb86517	0.02250914
137	0x3e0a39a5	0.13498552
138	0xbc12f2e8	-0.008969046
139	0x3c152149	0.009102174
140	0xbe0a0aec	-0.13480729
141	0x3df87b63	0.12132909
142	0x3ad94fc1	0.0016579555
143	0xbd8f31df	-0.06991934
144	0x3e1ed420	0.15510607
145	0xbcb0748f	-0.021539954
146	0x3ccb79ba	0.024838317
147	0x3c840bff	0.016119001
148	0x3d39eaa1	0.045389775
149	0x3e2b24e0	0.16713285
150	0x3d4408ad	0.047859836
151	0xbd90692d	-0.07051311
152	0x3c729c17	0.0148077225
153	0x3d808531	0.06275404
154	0x3ddbb53b	0.10727926
155	0x3da7b9c1	0.081897266
156	0x3d9b39f3	0.07579412
157	0x3ca9c3ab	0.020723185
158	0x3dd37dab	0.10326704
159	0x3c70ed74	0.014705051
160	0xbc14a79c	-0.009073164
161	0xbe0899b5	-0.13339885
162	0x3d818566	0.06324272
163	0xbdb076e1	-0.08616424
164	0x3d1962fb	0.03744791
165	0x3c23221d	0.009956864
166	0x3df54a6c	0.119770855
167	0xbd1ed8c6	-0.03878095
168	0xbd79219b	-0.060823064
169	0xbd9cb154	-0.0765101
170	0x3d0cc978	0.034371823
171	0x3c36e622	0.011163266
172	0x3e0d34d7	0.13789688
173	0xbaf515da	-0.0018698529
174	0x3ccd8355	0.025087038
175	0xbdbbb19c	-0.09164736
176	0x3e1754f1	0.14778496
177	0xbd18961f	-0.03725254
178	0xbdf8eed0	-0.12154925
179	0x3d041d35	0.032254416
180	0xbdc472bc	-0.09592196
181	0x3d43e645	0.047827024
182	0xbd5222ad	-0.0513026
183	0xbda2eec7	-0.079556994
184	0xbcc7d941	-0.024395587
185	0x3dae305a	0.08505316
186	0xbdc2b4e1	-0.09507156
187	0x3dd620fb	0.10455509
188	0xbc9aa468	-0.018877223
189	0xbd594bbf	-0.053050753
190	0x3dc22b56	0.09480922
191	0x3d41b2f0	0.04728979
192	0x3df5ee56	0.120083496
193	0x3de71f38	0.112852514
194	0x3df53462	0.11972882
195	0x3dd7ea06	0.10542683
196	0x3e0b5448	0.1360637
197	0x3d5979a8	0.053094536
198	0x3dc85d0c	0.09783372
199	0xbccec0f6	-0.025238495
200	0x3e1d73ce	0.15376207
201	0x3d16d93d	0.03682827
202	0x3dcdd199	0.10049743
203	0x3d17b0d1	0.03703386
204	0x3dc3c619	0.095592685
205	0x3d8a496e	0.06752287
206	0x3daa2592	0.08307947
207	0xbc039c4f	-0.008032872
208	0x3dab5e5e	0.083676085
209	0x3c15c0cc	0.009140205
210	0x3d885952	0.066576615
211	0xbd928677	-0.071545534
212	0x3d054d34	0.03254433
213	0x3e403fdb	0.18774359
214	0x3d4ce74a	0.050025262
215	0xbd220b06	-0.039561294
216	0x3ddde99d	0.10835574
217	0x3e387f03	0.18017201
218	0x3d874cb7	0.06606429
219	0x3d8425fa	0.06452556
220	0xbc329b43	-0.010901275
221	0x3e0b4143	0.13599114
222	0x3e185f03	0.14879994
223	0xbc63e180	-0.013908744
224	0x3d8d39d7	0.06895798
225	0x3e1ad7de	0.1512141
226	0x3cc4e2e8	0.024033979
227	0x3d8e8690	0.069592595
228	0x3de1066f	0.10987555
229	0x3d9adf66	0.07562141
230	0xbc7f112b	-0.015568058
231	0x3c6f5301	0.014607192
232	0x3e0aafcf	0.13543628
233	0x3dd01ff7	0.10162347
234	0x3e0be236	0.13660511
235	0x3d2436ed	0.040091444
236	0x3cf3e10f	0.029770402
237	0x3bfbae97	0.007680725
238	0x3e17a0fa	0.14807501
239	0x3e18fc98	0.14940107
240	0xbca0799d	-0.01958924
241	0xbb6cb664	-0.0036119455
242	0x3db60b2d	0.0888885
243	0x3cd43610	0.025904685
244	0xbcf4ef1a	-0.029899169
245	0x3b4a6e63	0.003088855
246	0xbcbe9f1a	-0.023269225
247	0x3d5ac34c	0.053408906
248	0xbc7dd1f8	-0.015491955
249	0x3e106d68	0.14104235
250	0x3dc6321a	0.09677525
251	0x3e03ddea	0.12877622
252	0x3dd38eff	0.10330009
253	0xbdc7ec2e	-0.097618446
254	0x3e19f376	0.15034279
255	0x3d15b651	0.036550824
